sign_language.tflite (tflite, 338488 bytes, 10 tensors)

arith.constant f4 [256]
00000000: 3ebb c4bb 48f9 893c 8bc0 483d 2395 9e3a
00000010: 9766 23bc 6127 6bbb 7622 873c 5e98 a13d
00000020: 01ed ffbb 7ad3 a5bb 0000 0000 1ab5 ad3d
00000030: 76a1 773d e955 463e f1d0 a8bc c395 dbbc
00000040: aa79 2bbd 0000 0000 ad19 89bc 8ac3 c8bb
00000050: d12b 61bc be86 29bd efe0 dbbb 1296 4cbc
00000060: 0308 83bb 605e e63c 0000 0000 af48 87bc
00000070: 0000 0000 2a85 8f3d f3a1 3a3d 698b 00bc
00000080: 9c0f 4f3d fbd7 843b 0000 0000 871f 8e3c
00000090: ca33 423d dba4 743c 4baf 46bb 84cc c93c
000000a0: ce0e 943d e5fa 313d 7c78 8d3d 38d5 623d
000000b0: 5a0d 1e3d 28a7 fc3c f4b1 d33d c8a1 423d
000000c0: 8e83 adbc 2fca b0ba 11fa 213e 1839 f63c
000000d0: 82ce ed3c a96f 333d 705f c13d 3940 b53c
000000e0: ac8a b83c ee64 813d f457 fbbc e994 f83b
000000f0: e2f8 b03d e726 b93d 35b3 023c e769 b23d
00000100: c96b 673d 71a2 d3bb 37d9 29bc b87b 15bc
00000110: 70dd 4c3d e99f 993d e0f5 ba3d 1b9d dcbc
00000120: c996 30bd a9c5 6a3d a5d4 743c 0000 0000
00000130: d97a 7e3e 8529 f83b 5fac 65bc d3b8 a9bb
00000140: d181 8b3c c61e 96bc 7fbf dcbb 8ec2 01bc
00000150: e852 e63c 0ec2 bb3d 1daa d23b 8372 94bb
00000160: 1eef 1e3e b6d9 a3bc 5c72 da3c 9116 073e
00000170: 0000 0000 b9d2 463d 01ba a4bc 3439 593c
00000180: 483d 573e 725c ccbb 9535 b13d 8af3 99bc
00000190: d43d 02bc d23d efbc a39d 173d 0000 0000
000001a0: ad0c ce3c 0000 0000 77ce 98bb ed87 023e
000001b0: bf6e 693d 5555 333d f286 2ebd 0d3c 9d3d
000001c0: 3ec1 323d 0000 0000 503e c43d 7523 453d
000001d0: f791 80bb d685 a4bb 8428 573d 15e6 69bb
000001e0: 0000 0000 2d10 933d 4969 803d 80f8 a7bb
000001f0: 3a3e fe3d f358 523d 5621 d73d 0000 0000
00000200: 6926 843d f18d 98bc bbba 623d d024 8e3c
00000210: 24c0 b13d 0000 0000 4f16 403d 0000 0000
00000220: fe94 db3c 8aef 00bc 8626 a33d 1758 963d
00000230: 2a82 57bc 27c1 ce3a 56ff 443c 0254 abbb
00000240: 8a3d a8bc 8c8e 123d f92a 8e3d 3e34 21bc
00000250: 0e89 5dbb 3955 9c3b c89d cabc 363c 56bc
00000260: 02fe 4f3d 29b4 e5bb f9b8 b83b 447f 08bc
00000270: 779f 483d 37ca 5f3d 91d3 3c3c e77e a43d
00000280: dce4 85bb 38f8 f0bc 4ef2 413d e7d0 74bc
00000290: 0000 0000 0000 0000 2934 6d3c a7cd ebbb
000002a0: 1bf8 f1bc 54c6 c4bb c68e 37bc 5afb 883c
000002b0: 3ce7 cebc 6233 4b3d 57d8 c3bb d052 123e
000002c0: 45e8 34bd 9408 a1bc ed4d c43c c38e 0b3e
000002d0: 0000 0000 1408 113c 314b 0cbc 1f65 fb3c
000002e0: 693f 8f3a 1280 f9bb a88d d93b ca25 ab3d
000002f0: a9ff 8b3c f1e4 2dbc 0000 0000 8ee2 ec3d
00000300: 0000 0000 c8d4 913d 123e 9cbc 0000 0000
00000310: e1ff 1dbb 44e3 9d3d 39c0 7f3c 5ec1 ae3d
00000320: 84fe cd3c 3b8e 3bbb 1229 5c3d 7f7a 613e
00000330: ba5e 8fbc 4a5c acbb 20f2 3abc 0000 0000
00000340: fddb 513d a8e7 ae3c f341 51bc 4f91 15bc
00000350: 58cb 053d dbae 1a3d 79e4 823d ea7a 9fbc
00000360: caf3 97bb 09c0 69bc 0000 0000 45fe fdbb
00000370: ea5f 433d c90b d83d c93d 563d ecf5 95bc
00000380: a0e2 513e 03c8 89bc 0e7b 03bb 074f b23d
00000390: c7ec 493d 5c19 f13c f679 63bc 307e d13d
000003a0: 478b 86bc 1081 453d 44eb e03d b68b 2abc
000003b0: 2d0d 423d eeea 743e 3b57 813d 5a89 703d
000003c0: 0000 0000 46a9 1e3e 38b4 04bc a5c9 99bb
000003d0: 0000 0000 136a 7b3d b538 fcbb 8fdf fd3c
000003e0: faa5 2f3d 0000 0000 5de6 ae3c ab1e d83c
000003f0: 1798 29bd 4349 21bc fa71 5b3c 0000 0000
-0.0060037663 0.0168425 0.04901175 0.001209889 -0.00997319 -0.0035881626 0.016495924 0.0789039
-0.0078102355 -0.0050606104 0.0 0.08481808 0.060456716 0.1936871 -0.020607444 -0.02680481
-0.041864075 0.0 -0.016735876 -0.0061268257 -0.013743357 -0.041388266 -0.006710164 -0.012486951
-0.003998758 0.028121173 0.0 -0.01651415 0.0 0.07007821 0.045564603 -0.007845738
0.050551996 0.004054067 0.0 0.017349018 0.04741267 0.014931883 -0.0030316885 0.024633653
0.07229386 0.043452162 0.06907746 0.055379122 0.03858695 0.030841425 0.10336676 0.047517568
-0.021180894 -0.001348799 0.15818049 0.030056521 0.029029135 0.04380766 0.094420314 0.02212535
0.022527061 0.06318079 -0.030681588 0.007586111 0.08641221 0.09040623 0.007977297 0.087116055
0.056499276 -0.0064585735 -0.010366729 -0.009123735 0.050015867 0.075012036 0.09128928 -0.026930382
-0.04311255 0.05731741 0.0149432765 0.0 0.2485155 0.007573309 -0.014018147 -0.0051795035
0.017029675 -0.01832522 -0.0067366953 -0.007919921 0.028115705 0.09167872 0.0064289705 -0.0045302524
0.15520903 -0.020001274 0.026665859 0.13192202 0.0 0.048540805 -0.020108225 0.013258267
0.2101947 -0.0062366063 0.08652798 -0.018792886 -0.007949311 -0.029204283 0.03701557 0.0
0.025152529 0.0 -0.0046632844 0.12747164 0.05699038 0.04378255 -0.042609163 0.076774694
0.04364132 0.0 0.09582198 0.048129518 -0.0039236504 -0.0050208373 0.052528873 -0.0035690118
0.0 0.0718082 0.062700815 -0.005126059 0.124142125 0.05135436 0.10504405 0.0
0.06452639 -0.01862237 0.05535386 0.017351538 0.08679226 0.0 0.046896275 0.0
0.026804443 -0.007869611 0.07966332 0.073410206 -0.013153592 0.0015774117 0.012023767 -0.0052285204
-0.020537157 0.035780475 0.0694179 -0.009839116 -0.0033803615 0.0047709015 -0.02473344 -0.013075879
0.05077935 -0.007010002 0.005637285 -0.008331124 0.048980203 0.054636206 0.011525051 0.08032017
-0.00408612 -0.029415235 0.04735022 -0.014942384 0.0 0.0 0.014477768 -0.0071961465
-0.029537251 -0.006005088 -0.011203473 0.016721416 -0.025256746 0.04960955 -0.0059767175 0.14289403
-0.044166822 -0.01965741 0.02396294 0.13628678 0.0 0.008852024 -0.008562849 0.030687867
0.0010928932 -0.007614144 0.006639201 0.08356817 0.017089682 -0.010613666 0.0 0.115666494
0.0 0.07120663 -0.019072566 0.0 -0.0024108815 0.07709363 0.015609794 0.085329756
0.025145777 -0.0028618712 0.053750105 0.22019385 -0.017501224 -0.005260025 -0.011410266 0.0
0.051235188 0.021350697 -0.012772071 -0.009128883 0.032664627 0.03776441 0.06391234 -0.01946779
-0.004637216 -0.014266976 0.0 -0.0077512586 0.047698893 0.10549123 0.052305017 -0.018305741
0.20496607 -0.016819006 -0.002006236 0.087064795 0.049298074 0.029431038 -0.013884058 0.102291465
-0.016423834 0.048218787 0.10982373 -0.010409286 0.047375847 0.23917744 0.06315466 0.05872474
0.0 0.1549426 -0.008099608 -0.0046932274 0.0 0.061380457 -0.0076971897 0.03099039
0.042882897 0.0 0.02135008 0.026381811 -0.04140481 -0.009844127 0.013393873 0.0

arith.constant1 f4 [39]
00000000: 8f90 6140 cf11 25bf 2dfc a3be 7d81 313f
00000010: 62b4 2f40 81ea 0c40 1fe0 1140 e365 38be
00000020: 26a6 493f cc5c 10bf 210c 3d40 2248 d73f
00000030: 39e7 3b40 7583 2b40 bab7 9640 1954 6540
00000040: 43b8 9040 a57b fc3f 7a5d 8640 5fc6 9c40
00000050: 3057 d33f 80e8 a63f 57e9 c83f 7f86 1f40
00000060: feea 7e40 5757 dd3f 592a 6540 98b7 7940
00000070: f13b b940 e7bf 4d40 acf0 7040 7f42 3440
00000080: 44d6 7740 b4e4 bc40 f635 4440 54e6 5b40
00000090: a942 d63f 0680 d53e 112f 6640
3.5244482 -0.644803 -0.32028332 0.6933821 2.7453847 2.201813 2.2793043 -0.18007617
0.7876915 -0.56391597 2.9538653 1.6818888 2.9359877 2.6798985 4.7099276 3.583258
4.522493 1.9725233 4.1989107 4.899215 1.6510983 1.3039703 1.569621 2.492584
3.9830928 1.7292279 3.5807097 3.9018307 5.788567 3.2148378 3.7646894 2.8165586
3.8724527 5.902918 3.0657935 3.435933 1.6739093 0.41699237 3.5966227

arith.constant2 f4 [512]
00000000: 20e8 fb3e dd82 10bf e024 1340 4461 8b3f
00000010: 6770 c63e fad6 8040 0cac 1640 7b09 143f
00000020: 7b4b 07c0 fa93 10bf 7cc1 5240 8c10 833e
00000030: 8fb9 7a40 4a0a 1c3f 5893 43bf 4e80 af3f
00000040: cd2a b53f 54eb 9a3f 32f2 5740 6b4f 5e3f
00000050: 1a7d 6e3f 92b7 9fbe 270e 4240 f8cc c2be
00000060: bfac 2e40 e765 903e 43e7 b5bf 403b fa3e
00000070: a5ce 8fbe 2619 e53e d897 98bf 1683 783f
00000080: db30 2cbe 35e4 6bbf 31df 2d40 152c adbe
00000090: ea7b e13f ee33 303d da77 a4bf efe7 1a40
000000a0: 3890 523f 333f 88bf 8949 173f 0160 8abf
000000b0: e8aa 053f 39e1 83bf 0842 0abf e8c5 3fbe
000000c0: 3659 e73f fc0d ae40 dd63 b6bd 29b5 353f
000000d0: 2fb6 3bbf c99f cebe 704a 2c40 9160 7440
000000e0: f917 7640 4253 32c0 afbc e63f 889b 853f
000000f0: bd6c f6be 2d75 a63f 9827 dfbe d234 273f
00000100: ab8b 6b3f ef78 df3f e782 e73e 4cca 5340
00000110: edad 31bf 1fbf 0140 9e74 c3bf 79d4 2040
00000120: bac4 1940 bed2 2640 e51b 0e3f 5ec1 7040
00000130: a4ce a8bf 0f6e 01bf c9a0 c03f 8cea cc3e
00000140: 3b89 253f a127 c0bf c4ca b73f 026f 7cbf
00000150: c09b 573f 5963 6140 740a 5a40 75e4 8440
00000160: 6a1e 2a40 d0b5 8a40 d6a3 b63f aa98 7540
00000170: 69b3 d23f c43f 1ac0 a120 85be 358a abbe
00000180: 1d79 943f 149e 1e3e 3a3f 253f b287 15bd
00000190: ca87 933e 623f e43f eef0 413f 2f32 46be
000001a0: cbdd 3b40 9a4e 04bf 467e d9bf f88a 473e
000001b0: 9d30 85be 944f 9e3f 9440 ccbf e846 f9be
000001c0: c5f2 b13f 111a 1f3f 78ac 103f 1592 333f
000001d0: 2f54 9a3f 74d1 3240 e9f5 54bf ad57 763f
000001e0: e415 8f3f 4649 83be 927d 043f 8c41 bebf
000001f0: 28b3 34bf 2d40 8240 55d7 8f3f 08b1 2b40
00000200: f288 ac3f 9dbc e83d dd7e 1fbe c6ad 1040
00000210: e6aa ffbe f9d6 ef3f c5fe 85bf 8a24 babd
00000220: 30ae 2640 8aff 003f d5e6 173d 0f80 73bf
00000230: 41e6 b63f 733a d0be 949b de3e efe4 0940
00000240: 63a0 e6be e509 f63e abc8 743f e606 2a3e
00000250: 3f21 aebf 1a7b 0940 4717 363f 3c6c 7640
00000260: e1cc 953f 3512 0abf e95a 793f 1c03 9140
00000270: 106c eb3f ecb0 4ebd 1a14 0ebf d6ad 41bf
00000280: 26cc f6bf 1015 1940 be28 b53e 0a6b 223f
00000290: 1d27 03c0 2222 69bf 72a8 0640 c9a7 cc3a
000002a0: 115d 603f 27d2 f73f 12db 8e40 54a0 8f3e
000002b0: 0c5c 98bf 787b 4840 7f35 5240 2886 1d40
000002c0: 25bd af3f 07d6 d6be 892a 273f 92ea 4c3f
000002d0: bcf7 c9bf 9ca2 45be 0c53 723f 0326 603f
000002e0: e7c7 733e ea54 e93f bb89 52bf 8255 103f
000002f0: 6a93 23bf ad99 3140 59ac 463f 3501 e93e
00000300: 3bb7 533f ed40 b43f dcc4 1b40 b635 4a40
00000310: 4d72 c6be 58c0 e33f f719 a13f 3c26 1e40
00000320: ac4b 863f 4112 e53f 1156 0440 c251 1640
00000330: 96ee a9bf 8025 293f b412 8abf 4af0 773e
00000340: 0aae 373f 5a22 453f 53c7 373f bd24 9440
00000350: b897 343e 2028 11be 671b 073f 1762 7740
00000360: 2a16 5840 85bb 0f40 699d 1d3f c3f0 a3be
00000370: 96fe d23d 213c a43e a61d abbf 16b2 cd3f
00000380: 5d2f 8c40 03fd 423f 2c71 fdbf d0be 0840
00000390: 9570 dd3f 63e7 e6be 8d7d 7a3f bd25 383e
000003a0: cbb6 8140 325d 923f 8195 173f 1f67 933e
000003b0: 30ff b33f ae3d 7cc0 3e97 0a40 f193 8940
000003c0: 4164 3140 3ee5 ecbf 2186 1dbf 4939 8c3f
000003d0: 9745 5440 9678 103d e59a 4fc0 c57e 2d3e
000003e0: 19fc edbe bdde 6d40 cda4 0c40 7f92 cbbf
000003f0: f362 e93f 015d 7640 3955 c4bf 71cb aebf
0.49200535 -0.5644968 2.2991257 1.0889058 0.3875763 4.0262423 2.354251 0.57826966
-2.113982 -0.56475794 3.2930593 0.25598562 3.9175756 0.609532 -0.76396704 1.371103
1.4153687 1.2103066 3.3741574 0.8683993 0.9315964 -0.3119474 3.0321138 -0.38047004
2.7292936 0.28202745 -1.42112 0.4887333 -0.28087345 0.4474575 -1.1921339 0.9707502
-0.16815512 -0.9214509 2.7167475 -0.33822694 1.761594 0.043018274 -1.2849076 2.420406
0.8225131 -1.0644287 0.5909658 -1.0810548 0.5221391 -1.0303108 -0.54007006 -0.18727839
1.80741 5.439207 -0.08905766 0.70979553 -0.73324865 -0.4035628 2.6920433 3.818394
3.8452132 -2.7863317 1.8026332 1.0438089 -0.48129836 1.3004509 -0.43584895 0.6531497
0.9200999 1.7458781 0.45217058 3.3092222 -0.69406015 2.02729 -1.5269964 2.5129683
2.4026322 2.6066127 0.55511314 3.7618022 -1.3188062 -0.5055856 1.5049068 0.40022695
0.6466252 -1.5012094 1.4358754 -0.98606884 0.8422203 3.5216887 3.406888 4.152888
2.6581063 4.334694 1.4268749 3.8374429 1.6461002 -2.410142 -0.26001456 -0.3350388
1.1599461 0.1548999 0.645496 -0.036506362 0.28814536 1.7831843 0.75758255 -0.19355081
2.9354122 -0.51682436 -1.699166 0.19486606 -0.26013651 1.2368035 -1.5957208 -0.4868691
1.3902212 0.6214915 0.56513166 0.7014478 1.2056941 2.794034 -0.8318773 0.9622753
1.1178555 -0.2564184 0.51754105 -1.4863753 -0.7058587 4.070334 1.1237589 2.6826801
1.3479292 0.113641 -0.15575738 2.2606063 -0.49935073 1.873748 -1.0468374 -0.090890005
2.6043816 0.5038992 0.037085373 -0.95117277 1.4289018 -0.40669593 0.43478072 2.154598
-0.4504424 0.48054424 0.95618695 0.16604194 -1.3603896 2.1481385 0.7112927 3.850356
1.1703149 -0.5393403 0.9740434 4.5316296 1.8392353 -0.050461695 -0.5549942 -0.7565588
-1.9281051 2.3919106 0.35382646 0.6344458 -2.0492623 -0.9106771 2.104031 0.0015613969
0.8764201 1.9361008 4.464242 0.28052008 -1.190309 3.132536 3.2845151 2.4613132
1.3729597 -0.41960165 0.6529928 0.80045426 -1.5778728 -0.19300312 0.9465797 0.87558
0.23806725 1.8229039 -0.8224141 0.56380475 -0.6389681 2.7750046 0.7760673 0.45508733
0.8270146 1.4082314 2.4338903 3.1595283 -0.3875908 1.7793074 1.2586049 2.4710836
1.0491843 1.7896196 2.067753 2.34874 -1.3275936 0.66072845 -1.0786958 0.24212757
0.7174994 0.7700554 0.7178852 4.6294847 0.17636001 -0.14175463 0.5277619 3.865362
3.3763528 2.2458203 0.61568314 -0.32019624 0.10302465 0.32077125 -1.3368423 1.6069973
4.3807817 0.76167315 -1.9800162 2.1366463 1.7299982 -0.4509841 0.97847825 0.17983146
4.0535636 1.1434691 0.592125 0.28789613 1.4062252 -3.9412646 2.165481 4.2993093
2.771744 -1.8507459 -0.6153279 1.0954982 3.3167474 0.03527125 -3.243829 0.1694289
-0.46481398 3.7167199 2.1975586 -1.5904082 1.8233322 3.8494265 -1.5338508 -1.3655835

arith.constant3 f4 [256]
00000000: 5f2e bc40 db6b 0241 9f38 9140 97f6 5540
00000010: 4f1a ce40 b80e 8fbe 7c55 22c0 1951 07c1
00000020: b894 2841 a27c 1241 a8c6 f240 b38e 1741
00000030: 0821 9640 59a6 7dc0 035e 3b41 90dc ee40
00000040: ad6d f540 611d 5440 a10f 37c0 d943 abbf
00000050: 3193 ed40 f1eb 7cc0 37db 3840 97a4 fa3e
00000060: 7e93 1e41 5882 ef40 c9ac a140 ac46 dd40
00000070: fee1 c2bf 1a19 2541 a975 1740 2f64 ab40
00000080: e2c6 1b41 f98f ef3f ed1f 16c1 8bcf 8840
00000090: 255c 0141 e77a 1240 6051 163f f53e 0f40
000000a0: 91e2 683f b8e7 9940 5cf2 ec3f 07b7 2441
000000b0: c8e8 48c0 c9b7 9640 4fd6 32c0 81e5 d540
000000c0: 07ad 2cc0 e1d2 30c1 f0f1 f640 71b4 8e3f
000000d0: 28ec 8140 175e 7640 490f 253f c5c6 883f
000000e0: 81cb 9440 ddb7 dec0 5f54 1541 4625 4540
000000f0: e241 5ac0 73c9 cd40 041a d240 f125 3040
00000100: 0e38 bcc0 76c1 0fc0 340b dd40 8faf c740
00000110: 7543 5b3e 46cd 6940 0a94 a9c0 ca13 8040
00000120: 9d69 d13e ecf2 de40 18d4 e0c0 0d4f 1241
00000130: f09d 9640 e8be 2241 9161 4cc0 2114 0f41
00000140: e388 a340 7a0e b440 011a 9040 f5bb 75bf
00000150: 809a cd40 762f 3c40 ce5b ca40 1423 293f
00000160: ede3 3e40 543e 0541 75cd 1440 2c02 d140
00000170: fb57 b040 447a 3840 e5e1 7640 db9f 6e40
00000180: ca30 fb40 e7c4 2340 cddb b940 25e2 a040
00000190: 9e27 0041 d25a a540 0e60 8a40 98b5 fe40
000001a0: 7824 be3f c7d7 0dbf b4cb fb40 f995 da40
000001b0: d38d 8a40 1845 a840 956c cc40 dada ae40
000001c0: dab3 4fbf 008e 9540 f66a f040 67fa 1040
000001d0: 8387 92c0 5d65 963d aa6a 8040 e5b3 9740
000001e0: a2d0 eb40 b56b 9140 5516 0541 219a d540
000001f0: 3972 f33f 04f9 67bf 6596 e740 c773 ac40
00000200: 6cf8 df40 98a9 7ebf 0689 f040 a4c6 8b40
00000210: 68ee 2a40 4e81 b5c0 1382 a5bc 7986 a23b
00000220: 4dfe 0041 6491 cb40 6306 f040 9a75 f6bf
00000230: e7a8 a640 bda3 5940 b356 8840 c528 d440
00000240: 64f7 0241 46dc 0d41 44f9 c640 f646 3341
00000250: 7670 1041 a1c8 ce40 d892 0341 8779 1441
00000260: eebb 79c0 ecd7 a340 7dd3 d740 79f5 b23f
00000270: f504 8940 a57a 2f3f ce65 ff40 abee 9c3e
00000280: c185 c540 c216 7a3f 469a 1c41 4dd3 ddc0
00000290: 9b29 8dbf 7fe3 d740 9ce9 a240 f59a 9d40
000002a0: 9f15 e540 c716 d5c0 fe12 2c41 fc21 e940
000002b0: c10c f740 cf08 59c0 67cc af40 3118 b040
000002c0: 80b1 e0be 9dca 0441 2d77 4240 d049 8040
000002d0: 6eab eebe 2cf1 9740 42f7 de40 2e1a 9240
000002e0: e403 6b40 9ef5 8f40 2e4b 9840 5ddf 2f40
000002f0: f42c f9c0 610c 1341 9643 b040 aaf5 ea40
00000300: 63c3 db40 e55e 0e41 6a48 d43f ef15 643f
00000310: a126 65c0 8d2c 13c1 0932 04c0 f7f3 a540
00000320: 6ec8 8440 107e 803e 7bc8 2641 0228 0240
00000330: bb23 abc0 93e7 4140 e9ae 2341 8d3d cd40
00000340: 8a3c a040 6dc3 2041 5436 a540 cf6f 1941
00000350: ae9b 1ac1 0e83 7640 fed9 8440 2109 d840
00000360: b712 0241 0122 ca40 9466 dc3e 9e70 ee3f
00000370: 3e95 89c0 6bb0 cf40 ee44 e3c0 f6eb 0f41
00000380: 182c a0bf c619 e3c0 f214 0f41 e8f4 be40
00000390: 9986 df3f 100d 0641 cf20 d840 5ae5 c240
000003a0: 095e 0841 e4c5 0f40 73e4 8a40 3e8c c53f
000003b0: 0efd 2740 9ca1 bf40 d662 863f e11a a540
000003c0: a156 3640 4386 19c0 1665 0540 406f 06c0
000003d0: 1cb0 b140 f621 9b40 44b3 3040 8888 383e
000003e0: 614d ec3f 3562 ea40 9907 9340 3ec2 8e3f
000003f0: 7432 b940 9f66 2941 5176 f73f 2c70 ebbf
5.8806605 8.151332 4.5381618 3.3431756 6.4407115 -0.27940917 -2.5364676 -8.457299
10.536308 9.155428 7.58675 9.472339 4.691532 -3.963278 11.710452 7.464424
7.669638 3.3142931 -2.860329 -1.338008 7.4242177 -3.9519007 2.8883798 0.48953697
9.911009 7.484661 5.052342 6.914877 -1.5225217 10.318628 2.3665564 5.3559794
9.736055 1.8715812 -9.382794 4.275335 8.084996 2.2887514 0.5871792 2.2382176
0.9097071 4.809536 1.8511462 10.294684 -3.1392078 4.7099347 -2.7943304 6.6842656
-2.6980608 -11.051484 7.7170334 1.1148816 4.0600777 3.8494928 0.6447645 1.068566
4.649842 -6.9599442 9.333098 3.0804 -3.4102712 6.430841 6.5656757 2.7523158
-5.8818426 -2.246183 6.9076176 6.2401805 0.21412452 3.653154 -5.299321 4.0024157
0.4090089 6.9671535 -7.0258904 9.1442995 4.7067795 10.171608 -3.193455 8.942414
5.11046 5.626767 4.5031743 -0.95989925 6.42511 2.9403968 6.3237066 0.6606915
2.9826615 8.327717 2.32504 6.531515 5.51074 2.8824625 3.8575375 3.7285068
7.8497057 2.558893 5.808081 5.0276055 8.009672 5.1673365 4.3242254 7.959667
1.4854879 -0.55407375 7.868616 6.830807 4.3298125 5.2584343 6.3882546 5.4642153
-0.81133807 4.673584 7.5130568 2.2652833 -4.579042 0.07343552 4.0130205 4.74071
7.369218 4.544398 8.317952 6.6750646 1.9019233 -0.9061434 7.2371087 5.389133
6.999075 -0.9947753 7.5167265 4.367998 2.6708012 -5.6720343 -0.020203626 0.004959878
8.062085 6.361498 7.5007796 -1.9254639 5.208118 3.4006188 4.2605834 6.6299767
8.185398 8.866278 6.217928 11.204824 9.027456 6.461991 8.223351 9.27967
-3.9020953 5.1201077 6.7445664 1.3981162 4.281855 0.68546516 7.9811773 0.3065084
6.1725774 0.97690976 9.787664 -6.9320436 -1.1028322 6.7465205 5.091017 4.9251657
7.1588893 -6.6590304 10.754637 7.2853985 7.720307 -3.3911626 5.4937015 5.502953
-0.43885422 8.299466 3.038524 4.0090103 -0.46615165 4.74819 6.967683 4.565696
3.6721125 4.4987326 4.759177 2.748008 -7.7867374 9.190522 5.50825 7.3424883
6.867601 8.898168 1.6584599 0.8909597 -3.5804827 -9.198377 -2.065554 5.186031
4.1494665 0.25096178 10.423945 2.033692 -5.3481116 3.0297592 10.230203 6.4137635
5.00739 10.047711 5.162882 9.589797 -9.663008 3.851749 4.1516104 6.7511144
8.129569 6.316651 0.4304701 1.8628118 -4.299468 6.4902854 -7.1021643 8.995108
-1.2513456 -7.096896 8.942614 5.967396 1.7462951 8.378189 6.754005 6.090497
8.522958 2.2464533 4.340387 1.5433424 2.6248202 5.9884777 1.0498912 5.159531
2.8490374 -2.3988197 2.0842948 -2.1005402 5.5527477 4.8478956 2.7609415 0.18020833
1.8461114 7.324488 4.5946774 1.1153028 5.787409 10.587554 1.9332982 -1.8393607

arith.constant4 f4 [128]
00000000: e296 883f 35e9 78be 22e4 0d40 0fcf 5340
00000010: fe73 893f c095 9c40 4fd6 3c3f a5a7 6840
00000020: 5b48 6d40 3cc2 2640 36d5 4640 d65f a23f
00000030: adb7 9640 350b 2740 ca54 5140 0327 7f40
00000040: f385 153e cdf5 913f a86a 3040 dcee 2640
00000050: 623d 68be ce0d 7940 559a 8040 3aaf de3f
00000060: 9e00 8140 076b 09bf daf3 9840 13d3 5f40
00000070: 404f 5d40 73f5 b93f 26cf 2840 8c72 1940
00000080: 6300 8b40 232c 4340 7599 0440 4508 c3bf
00000090: 85bd fc3f 7608 7e3f 579c 03bf 6a4c 4c40
000000a0: 468b 0640 6220 9c40 d5a8 5540 0db8 4040
000000b0: 90e4 0f40 5a07 2840 b6d8 283f 8071 8740
000000c0: 90f8 963f 4315 7140 eca0 0740 fba6 56bf
000000d0: cb65 4e3e a044 0140 4b27 8340 5a9c 3940
000000e0: dd76 8840 0243 cfbf ca98 e73f 3329 5640
000000f0: 5910 4440 0fb4 4f3f b18f 7c40 e75d a13f
00000100: 6863 34c0 372b 9540 c472 bb3f 6429 743f
00000110: 12fb 5340 9635 4540 4165 0d40 c65d a840
00000120: b963 0540 9c3e 8e40 9a1f 3140 dcbb 2340
00000130: 22bc de3f 97f2 2c40 8c2a 1740 52a7 1940
00000140: 78c0 0d40 fe5f 3940 d53a 4040 733c c1bd
00000150: 5842 1a40 6283 1140 1e2b 5a40 d827 9240
00000160: c840 893f 9175 533f 9640 f73f 6a87 0240
00000170: 5f84 8640 4987 f0be a9fe 0140 e9cb 963f
00000180: 0463 773e 3d80 fc3f 3b83 8640 58a8 fe3f
00000190: 647e 3d40 9792 6540 dce4 4040 18f4 a73f
000001a0: eec7 7a40 5eed 6840 274a 833f c7d5 9140
000001b0: 8f0c 3440 0e07 8240 2008 2940 b2ac cb3f
000001c0: 7ccc 6140 cf75 5e40 9f18 3940 99d0 403f
000001d0: 626e 4ac0 fd2d 8540 6077 f33f f1c7 9440
000001e0: 86c9 5240 0035 0b40 e76e 283f 1a52 9240
000001f0: 32a3 e23f 0d4a eb40 a9d5 ca3f 6cad 7340
1.0671046 -0.24307711 2.2170491 3.3095129 1.0738523 4.89328 0.7376451 3.6352322
3.7075412 2.6056051 3.1067634 1.2685497 4.7099214 2.610059 3.2708 3.986756
0.14601879 1.1403137 2.7565098 2.6083288 -0.22679666 3.8914676 4.0188394 1.7397225
4.0313253 -0.53678936 4.779767 3.497258 3.457962 1.452803 2.6376433 2.3976164
4.343797 3.049569 2.0718663 -1.5236899 1.9745337 0.9923166 -0.5141043 3.192164
2.1022506 4.878953 3.3384297 3.0112336 2.2483253 2.6254487 0.65955675 4.232605
1.1794605 3.7669227 2.119197 -0.8384854 0.20156018 2.0198135 4.0985465 2.900168
4.2645097 -1.6192324 1.8093503 3.3462646 3.0634978 0.8113412 3.9462702 1.2606782
-2.8185673 4.6615252 1.4644399 0.9537566 3.312199 3.0813956 2.209305 5.261447
2.0842116 4.4451427 2.7675538 2.558341 1.7401164 2.7023065 2.3619719 2.4008374
2.2148724 2.896484 3.0035908 -0.09435358 2.4102993 2.273644 3.4088817 4.5673637
1.0722895 0.8260127 1.9316585 2.039515 4.2036586 -0.46978214 2.0311682 1.1780978
0.24158865 1.9726635 4.2035193 1.9895124 2.9608393 3.5870721 3.0139685 1.3121367
3.9184527 3.6394877 1.0257004 4.557346 2.8132665 4.063361 2.641121 1.5912077
3.5281057 3.4759405 2.8921278 0.75318295 -3.1629872 4.161864 1.9020805 4.649407
3.29355 2.1751099 0.65794224 4.572522 1.7706053 7.3527894 1.5846454 3.8074598

tfl.pseudo_qconst i1 [128, 256]
00000000: d8f5 070c 272b bfda ecdd 003f b014 145d
00000010: 1cb3 ccb9 bc08 270c f315 f5fa ee09 2ff4
00000020: 72e8 07d4 fde9 f0ee b6e6 0608 d3cc efe9
00000030: d4f8 f816 f412 bdff bbce 010c f389 c00e
00000040: 04e6 5f1d e013 0adf f516 031e f232 0b3a
00000050: 329b dff2 ca30 fef4 34b8 033f 96fb 181d
00000060: 3ff8 3b45 39bf 1014 eb04 110d 20fe 1c31
00000070: 3526 811d f7c0 e0e7 00f2 1df4 e60e 050d
00000080: f10b 1155 f92b ea60 be33 b1cb c1fb 2e22
00000090: 0f07 ce09 3f17 2be0 f8d8 effd 4d15 3827
000000a0: 1bfb f204 2428 3a36 bff8 31e8 5dbd 1f0b
000000b0: cae9 2404 eb53 efcf ead1 4e08 e9ca b5eb
000000c0: f14f 02d5 0417 2bfc 0bd7 e944 e51e f010
000000d0: f2e5 d7be 03ef af0c ee8b f318 fe4f d7f3
000000e0: 31ad ef01 10ed 63eb 59e4 ce00 2497 2c04
000000f0: 3a32 11da 3614 bad2 12dc f6ca 01f1 3708
-40 -11 7 12 39 43 -65 -38
-20 -35 0 63 -80 20 20 93
28 -77 -52 -71 -68 8 39 12
-13 21 -11 -6 -18 9 47 -12
114 -24 7 -44 -3 -23 -16 -18
-74 -26 6 8 -45 -52 -17 -23
-44 -8 -8 22 -12 18 -67 -1
-69 -50 1 12 -13 -119 -64 14
4 -26 95 29 -32 19 10 -33
-11 22 3 30 -14 50 11 58
50 -101 -33 -14 -54 48 -2 -12
52 -72 3 63 -106 -5 24 29
63 -8 59 69 57 -65 16 20
-21 4 17 13 32 -2 28 49
53 38 -127 29 -9 -64 -32 -25
0 -14 29 -12 -26 14 5 13
-15 11 17 85 -7 43 -22 96
-66 51 -79 -53 -63 -5 46 34
15 7 -50 9 63 23 43 -32
-8 -40 -17 -3 77 21 56 39
27 -5 -14 4 36 40 58 54
-65 -8 49 -24 93 -67 31 11
-54 -23 36 4 -21 83 -17 -49
-22 -47 78 8 -23 -54 -75 -21
-15 79 2 -43 4 23 43 -4
11 -41 -23 68 -27 30 -16 16
-14 -27 -41 -66 3 -17 -81 12
-18 -117 -13 24 -2 79 -41 -13
49 -83 -17 1 16 -19 99 -21
89 -28 -50 0 36 -105 44 4
58 50 17 -38 54 20 -70 -46
18 -36 -10 -54 1 -15 55 8

tfl.pseudo_qconst1 i1 [256, 512]
00000000: e4de 01f7 f511 f719 dffe 1e03 3ba6 f3d4
00000010: feef bf24 c4df 050e d9f8 cee0 233c d3f1
00000020: 0905 e018 5a20 24f8 d5fd e6d2 e2e6 17fc
00000030: f7ef 33ca c1f7 0ac8 2d0f fecb f40c 211a
00000040: 31f2 221c f801 1c3b fe42 2be2 bb6d e501
00000050: d2f0 fff3 e3fc dcea e7ff dfb9 2701 ceef
00000060: bfea ead0 c6fa f10c 02d6 0304 f1fc 3cfa
00000070: caf2 14cc f825 d308 fff1 d0df 0f1b 4f28
00000080: e61c de46 04e5 cbfa 903b 1635 dc28 bb0c
00000090: 0909 e62d ccdf f122 fe03 f6d6 0be2 e2cb
000000a0: fdef 4c07 e9fb 0714 bf09 f41d 32f3 17ee
000000b0: dfb0 1024 f6e1 c1d3 ed0d d7dd fd41 09ee
000000c0: 1212 3ef3 ecfc 04e4 cf12 edfe 05fa f2db
000000d0: cbf1 0dcb 1e0c f329 dd17 093f d731 e632
000000e0: 09e6 e8ff b2f6 06e9 e8da afd7 e6fb 2bed
000000f0: 2010 d3e3 27f0 fbe2 1024 ea3e 1e15 d9cf
-28 -34 1 -9 -11 17 -9 25
-33 -2 30 3 59 -90 -13 -44
-2 -17 -65 36 -60 -33 5 14
-39 -8 -50 -32 35 60 -45 -15
9 5 -32 24 90 32 36 -8
-43 -3 -26 -46 -30 -26 23 -4
-9 -17 51 -54 -63 -9 10 -56
45 15 -2 -53 -12 12 33 26
49 -14 34 28 -8 1 28 59
-2 66 43 -30 -69 109 -27 1
-46 -16 -1 -13 -29 -4 -36 -22
-25 -1 -33 -71 39 1 -50 -17
-65 -22 -22 -48 -58 -6 -15 12
2 -42 3 4 -15 -4 60 -6
-54 -14 20 -52 -8 37 -45 8
-1 -15 -48 -33 15 27 79 40
-26 28 -34 70 4 -27 -53 -6
-112 59 22 53 -36 40 -69 12
9 9 -26 45 -52 -33 -15 34
-2 3 -10 -42 11 -30 -30 -53
-3 -17 76 7 -23 -5 7 20
-65 9 -12 29 50 -13 23 -18
-33 -80 16 36 -10 -31 -63 -45
-19 13 -41 -35 -3 65 9 -18
18 18 62 -13 -20 -4 4 -28
-49 18 -19 -2 5 -6 -14 -37
-53 -15 13 -53 30 12 -13 41
-35 23 9 63 -41 49 -26 50
9 -26 -24 -1 -78 -10 6 -23
-24 -38 -81 -41 -26 -5 43 -19
32 16 -45 -29 39 -16 -5 -30
16 36 -22 62 30 21 -39 -49

tfl.pseudo_qconst2 i1 [512, 256]
00000000: 18f7 dee1 00ce f014 37b4 fa05 1ece 26f6
00000010: 5406 cbfe 11c1 0402 e1cb 0cbc 10d1 f5f6
00000020: eee2 b7ee e912 a7df cdd6 eedc 0803 cd2a
00000030: 24fc 05e8 dff9 ede4 cb22 0111 f324 15ef
00000040: 1606 2630 200c 13b4 3314 11e1 00f9 35ca
00000050: 490a e2eb d734 13d5 f7f6 3b11 e120 1801
00000060: f615 23f3 4116 faee f3e7 1bf7 ea0c e7db
00000070: 2f15 172b 02ff ff42 bf0a a929 24fa 0ae7
00000080: 12ca 2122 f8ea 29df f2d4 28ee fcc5 ff7f
00000090: e0fb 1c50 f0fc 042b 0a41 c0e7 37fe df21
000000a0: f6a0 05c4 3501 e414 9d51 afde f10c f904
000000b0: bbd2 c206 c9eb 2021 d1d8 110b 0eed ee17
000000c0: ede0 1d1d 041d f1f8 dc1c 0dfb 0215 4af6
000000d0: 0607 0ce5 1f0c 2045 f133 d74d f804 1121
000000e0: 0209 031f fafc 11fd bdfe fc1a 09fb b22c
000000f0: d3f3 b20a b9eb f602 2b53 ed0e 5643 29b4
24 -9 -34 -31 0 -50 -16 20
55 -76 -6 5 30 -50 38 -10
84 6 -53 -2 17 -63 4 2
-31 -53 12 -68 16 -47 -11 -10
-18 -30 -73 -18 -23 18 -89 -33
-51 -42 -18 -36 8 3 -51 42
36 -4 5 -24 -33 -7 -19 -28
-53 34 1 17 -13 36 21 -17
22 6 38 48 32 12 19 -76
51 20 17 -31 0 -7 53 -54
73 10 -30 -21 -41 52 19 -43
-9 -10 59 17 -31 32 24 1
-10 21 35 -13 65 22 -6 -18
-13 -25 27 -9 -22 12 -25 -37
47 21 23 43 2 -1 -1 66
-65 10 -87 41 36 -6 10 -25
18 -54 33 34 -8 -22 41 -33
-14 -44 40 -18 -4 -59 -1 127
-32 -5 28 80 -16 -4 4 43
10 65 -64 -25 55 -2 -33 33
-10 -96 5 -60 53 1 -28 20
-99 81 -81 -34 -15 12 -7 4
-69 -46 -62 6 -55 -21 32 33
-47 -40 17 11 14 -19 -18 23
-19 -32 29 29 4 29 -15 -8
-36 28 13 -5 2 21 74 -10
6 7 12 -27 31 12 32 69
-15 51 -41 77 -8 4 17 33
2 9 3 31 -6 -4 17 -3
-67 -2 -4 26 9 -5 -78 44
-45 -13 -78 10 -71 -21 -10 2
43 83 -19 14 86 67 41 -76

tfl.pseudo_qconst3 i1 [39, 128]
00000000: ee25 6218 b1d5 4dfe e8cf a6f6 fad6 c331
00000010: 623c 5132 e8cf afcd f0c3 6226 a0de efbd
00000020: b28e 1100 ef43 f2a9 af03 40c1 bae1 39bd
00000030: fba8 27cb 0ac6 33fc e41d 7fd7 56c8 b9d0
00000040: c5d6 f4e3 c835 bcbf 3927 e52b c248 7710
00000050: f6cc 0fd5 2f39 2150 d2d2 f7fe eea5 decb
00000060: cba9 4b30 ace7 b703 e45e 0fd5 c94a a13a
00000070: e434 c9de 35d0 d4c9 ea09 cf18 aaf1 1bd7
00000080: b563 dda3 ccd0 d652 0dd4 cb07 c0b6 e7f6
00000090: 2cae a52d a039 37aa 0ed6 2158 c0c5 b253
000000a0: e823 22bf 6462 efdb ae1b 87ba e659 d758
000000b0: ae4e 35d9 f3a8 4adc d394 4f39 55c7 4213
000000c0: 0ebb b2ef cf6e df70 e792 097c c7f7 1ef3
000000d0: 479f efc3 a4d3 9788 ff4c 07ef 91e2 c477
000000e0: f207 e4ef 0cca b59c 535f b82c 417f 4895
000000f0: 4c4d 76d9 5718 fd4b 4a05 ec3e f330 423a
-18 37 98 24 -79 -43 77 -2
-24 -49 -90 -10 -6 -42 -61 49
98 60 81 50 -24 -49 -81 -51
-16 -61 98 38 -96 -34 -17 -67
-78 -114 17 0 -17 67 -14 -87
-81 3 64 -63 -70 -31 57 -67
-5 -88 39 -53 10 -58 51 -4
-28 29 127 -41 86 -56 -71 -48
-59 -42 -12 -29 -56 53 -68 -65
57 39 -27 43 -62 72 119 16
-10 -52 15 -43 47 57 33 80
-46 -46 -9 -2 -18 -91 -34 -53
-53 -87 75 48 -84 -25 -73 3
-28 94 15 -43 -55 74 -95 58
-28 52 -55 -34 53 -48 -44 -55
-22 9 -49 24 -86 -15 27 -41
-75 99 -35 -93 -52 -48 -42 82
13 -44 -53 7 -64 -74 -25 -10
44 -82 -91 45 -96 57 55 -86
14 -42 33 88 -64 -59 -78 83
-24 35 34 -65 100 98 -17 -37
-82 27 -121 -70 -26 89 -41 88
-82 78 53 -39 -13 -88 74 -36
-45 -108 79 57 85 -57 66 19
14 -69 -78 -17 -49 110 -33 112
-25 -110 9 124 -57 -9 30 -13
71 -97 -17 -61 -92 -45 -105 -120
-1 76 7 -17 -111 -30 -60 119
-14 7 -28 -17 12 -54 -75 -100
83 95 -72 44 65 127 72 -107
76 77 118 -39 87 24 -3 75
74 5 -20 62 -13 48 66 58

sequential_1/dense_1/MatMul i1 [256, 63]
00000000: d7ae c20e b616 f3fb 8152 e30b b073 54ed
00000010: fa90 e687 1a76 8b41 25f1 01e9 42b4 765f
00000020: d52f bef4 d224 598f 2ff2 60d4 2f62 a933
00000030: b00b 1361 bcf4 b089 5e91 81df a830 d8b1
00000040: 05d0 2315 2ecd 0b18 ebe8 de56 81d5 e82a
00000050: f4d6 3640 ecde f404 4618 1eed 0bb8 c216
00000060: d3da e909 e319 bec2 cb09 e314 0f1b 2d06
00000070: 3ac9 f0f7 d7bf 2134 2716 ea29 dcfb f711
00000080: eefc b3ea 05bc bced 8109 92dc 5b6b d83c
00000090: f2f7 c29e d1c7 ac13 e636 4e37 64e7 edb9
000000a0: 5162 0518 11d3 d120 e5c8 48a2 f002 ed07
000000b0: d035 3eac d65d ff1d dbbe 5ec1 b2cf 5c11
000000c0: ae2c 0675 c7f4 a52b 1899 afac ae93 2527
000000d0: c781 eb13 2ece c9e8 6b20 52ed 042d 61b2
000000e0: 1d6a d70f f181 77ea 3d6a ed65 91c5 0ba7
000000f0: 17da da01 004d d2fd 03ad 2e79 c39a 9e9c
-41 -82 -62 14 -74 22 -13 -5
-127 82 -29 11 -80 115 84 -19
-6 -112 -26 -121 26 118 -117 65
37 -15 1 -23 66 -76 118 95
-43 47 -66 -12 -46 36 89 -113
47 -14 96 -44 47 98 -87 51
-80 11 19 97 -68 -12 -80 -119
94 -111 -127 -33 -88 48 -40 -79
5 -48 35 21 46 -51 11 24
-21 -24 -34 86 -127 -43 -24 42
-12 -42 54 64 -20 -34 -12 4
70 24 30 -19 11 -72 -62 22
-45 -38 -23 9 -29 25 -66 -62
-53 9 -29 20 15 27 45 6
58 -55 -16 -9 -41 -65 33 52
39 22 -22 41 -36 -5 -9 17
-18 -4 -77 -22 5 -68 -68 -19
-127 9 -110 -36 91 107 -40 60
-14 -9 -62 -98 -47 -57 -84 19
-26 54 78 55 100 -25 -19 -71
81 98 5 24 17 -45 -47 32
-27 -56 72 -94 -16 2 -19 7
-48 53 62 -84 -42 93 -1 29
-37 -66 94 -63 -78 -49 92 17
-82 44 6 117 -57 -12 -91 43
24 -103 -81 -84 -82 -109 37 39
-57 -127 -21 19 46 -50 -55 -24
107 32 82 -19 4 45 97 -78
29 106 -41 15 -15 -127 119 -22
61 106 -19 101 -111 -59 11 -89
23 -38 -38 1 0 77 -46 -3
3 -83 46 121 -61 -102 -98 -100
